…
2022-07-11 13:42:22.609403: I tensorflow/core/platform/cpu_feature_guard.cc:193] This TensorFlow binary is optimized with oneAPI Deep Neural Network Library (oneDNN) to use the following CPU instructions in performance-critical operations:  AVX AVX2
To enable them in other operations, rebuild TensorFlow with the appropriate compiler flags.
Found 7811 files belonging to 6 classes.
Using 781 files for validation.
Found 864 files belonging to 6 classes.
Model: "sequential"
_________________________________________________________________
 Layer (type)                Output Shape              Param #   
=================================================================
 random_flip (RandomFlip)    (None, 256, 256, 3)       0         
                                                                 
 random_rotation (RandomRota  (None, 256, 256, 3)      0         
 tion)                                                           
                                                                 
 random_zoom (RandomZoom)    (None, 256, 256, 3)       0         
                                                                 
 rescaling (Rescaling)       (None, 256, 256, 3)       0         
                                                                 
 conv2d (Conv2D)             (None, 256, 256, 16)      448       
                                                                 
 max_pooling2d (MaxPooling2D  (None, 128, 128, 16)     0         
 )                                                               
                                                                 
 conv2d_1 (Conv2D)           (None, 128, 128, 32)      4640      
                                                                 
 max_pooling2d_1 (MaxPooling  (None, 64, 64, 32)       0         
 2D)                                                             
                                                                 
 dropout (Dropout)           (None, 64, 64, 32)        0         
                                                                 
 conv2d_2 (Conv2D)           (None, 64, 64, 64)        18496     
                                                                 
 max_pooling2d_2 (MaxPooling  (None, 32, 32, 64)       0         
 2D)                                                             
                                                                 
 dropout_1 (Dropout)         (None, 32, 32, 64)        0         
                                                                 
 flatten (Flatten)           (None, 65536)             0         
                                                                 
 dense (Dense)               (None, 128)               8388736   
                                                                 
 dropout_2 (Dropout)         (None, 128)               0         
                                                                 
 dense_1 (Dense)             (None, 128)               16512     
                                                                 
 dense_2 (Dense)             (None, 6)                 774       
                                                                 
=================================================================
Total params: 8,429,606
Trainable params: 8,429,606
Non-trainable params: 0
_________________________________________________________________
Epoch 1/20
2022-07-11 13:42:25.821870: W tensorflow/core/lib/png/png_io.cc:88] PNG warning: iCCP: known incorrect sRGB profile
…
