…
2022-06-15 08:51:49.496732: I tensorflow/core/platform/cpu_feature_guard.cc:151] This TensorFlow binary is optimized with oneAPI Deep Neural Network Library (oneDNN) to use the following CPU instructions in performance-critical operations:  AVX AVX2
To enable them in other operations, rebuild TensorFlow with the appropriate compiler flags.
Found 1000 files belonging to 2 classes.
Model: "sequential"
_________________________________________________________________
 Layer (type)                Output Shape              Param #   
=================================================================
 random_flip (RandomFlip)    (None, 256, 256, 3)       0         
                                                                 
 random_rotation (RandomRota  (None, 256, 256, 3)      0         
 tion)                                                           
                                                                 
 random_zoom (RandomZoom)    (None, 256, 256, 3)       0         
                                                                 
 rescaling (Rescaling)       (None, 256, 256, 3)       0         
                                                                 
 conv2d (Conv2D)             (None, 256, 256, 16)      448       
                                                                 
 max_pooling2d (MaxPooling2D  (None, 128, 128, 16)     0         
 )                                                               
                                                                 
 conv2d_1 (Conv2D)           (None, 128, 128, 32)      4640      
                                                                 
 max_pooling2d_1 (MaxPooling  (None, 64, 64, 32)       0         
 2D)                                                             
                                                                 
 conv2d_2 (Conv2D)           (None, 64, 64, 64)        18496     
                                                                 
 max_pooling2d_2 (MaxPooling  (None, 32, 32, 64)       0         
 2D)                                                             
                                                                 
 dropout (Dropout)           (None, 32, 32, 64)        0         
                                                                 
 flatten (Flatten)           (None, 65536)             0         
                                                                 
 dense (Dense)               (None, 128)               8388736   
                                                                 
 dense_1 (Dense)             (None, 6)                 774       
                                                                 
=================================================================
Total params: 8,413,094
Trainable params: 8,413,094
Non-trainable params: 0
_________________________________________________________________
Epoch 1/15
 1/63 [..............................] - ETA: 2:59 - loss: 1.7601 - accuracy: 0.4375
…
