…
2022-06-09 12:41:05.220413: I tensorflow/core/platform/cpu_feature_guard.cc:151] This TensorFlow binary is optimized with oneAPI Deep Neural Network Library (oneDNN) to use the following CPU instructions in performance-critical operations:  AVX AVX2
To enable them in other operations, rebuild TensorFlow with the appropriate compiler flags.
Found 7811 files belonging to 6 classes.
Using 781 files for validation.
Found 864 files belonging to 6 classes.
Model: "sequential"
_________________________________________________________________
 Layer (type)                Output Shape              Param #   
=================================================================
 rescaling (Rescaling)       (None, 256, 256, 3)       0         
                                                                 
 random_flip (RandomFlip)    (None, 256, 256, 3)       0         
                                                                 
 random_rotation (RandomRota  (None, 256, 256, 3)      0         
 tion)                                                           
                                                                 
 random_zoom (RandomZoom)    (None, 256, 256, 3)       0         
                                                                 
 conv2d (Conv2D)             (None, 253, 253, 16)      784       
                                                                 
 max_pooling2d (MaxPooling2D  (None, 126, 126, 16)     0         
 )                                                               
                                                                 
 batch_normalization (BatchN  (None, 126, 126, 16)     64        
 ormalization)                                                   
                                                                 
 conv2d_1 (Conv2D)           (None, 123, 123, 256)     65792     
                                                                 
 max_pooling2d_1 (MaxPooling  (None, 61, 61, 256)      0         
 2D)                                                             
                                                                 
 batch_normalization_1 (Batc  (None, 61, 61, 256)      1024      
 hNormalization)                                                 
                                                                 
 conv2d_2 (Conv2D)           (None, 58, 58, 320)       1311040   
                                                                 
 max_pooling2d_2 (MaxPooling  (None, 29, 29, 320)      0         
 2D)                                                             
                                                                 
 batch_normalization_2 (Batc  (None, 29, 29, 320)      1280      
 hNormalization)                                                 
                                                                 
 flatten (Flatten)           (None, 269120)            0         
                                                                 
 dense (Dense)               (None, 320)               86118720  
                                                                 
 dropout (Dropout)           (None, 320)               0         
                                                                 
 dense_1 (Dense)             (None, 400)               128400    
                                                                 
 dropout_1 (Dropout)         (None, 400)               0         
                                                                 
 dense_2 (Dense)             (None, 6)                 2406      
                                                                 
=================================================================
Total params: 87,629,510
Trainable params: 87,628,326
Non-trainable params: 1,184
_________________________________________________________________
Epoch 1/10
2022-06-09 12:41:08.644629: W tensorflow/core/lib/png/png_io.cc:88] PNG warning: iCCP: known incorrect sRGB profile
…
